encoder_weights.pth (torch, 973716 bytes, 5 tensors)

embedding.weight f4 [1123, 128]
0.41668412 -1.4521407 0.7369865 -2.465403 0.8497569 2.0729575 -0.08486095 1.1368454
1.145616 -0.44849414 -1.0664855 1.1631186 -0.070598125 -2.080073 -0.7480235 0.3371485
-0.8913435 -0.4977338 -0.10056128 0.43417874 0.8391972 -0.5777333 -1.6098065 -1.4298522
-0.42246467 0.7144391 -0.84890634 1.2418414 -0.7243146 1.0060459 -0.9788889 -0.11637408
-0.5311725 2.392903 0.2944949 -1.6027899 -1.0982845 -1.1151536 -0.006730826 -1.2267516
0.82371706 -0.70062256 0.0877618 -0.600279 0.72291875 -1.3318049 0.29656708 0.385549
0.3119728 -0.5163847 0.1635216 -0.4129739 -0.25283295 0.67254645 -0.5116057 0.830123
0.61402184 0.66607696 0.67650753 -0.6207899 1.8743882 1.1954684 0.60401416 0.26828784
0.9880207 2.1069357 -0.7762852 -1.1374785 1.0943419 -0.2913327 0.88158447 2.2989097
-0.9023561 -0.41729262 0.23005342 -1.2183592 0.3391132 -0.8767448 0.19937107 -0.59143215
-0.22315401 -0.5558074 -0.8231733 -0.9172336 -0.7411044 0.38420314 0.47445804 -0.0123395445
-0.05260286 -0.88123375 0.6166332 -1.4357915 0.01985001 -0.84312004 2.1247501 -0.83728766
1.3350902 -0.61184275 -0.9830236 1.5994745 0.8464781 0.34950218 1.8939892 0.76159406
-1.58515 -0.68000346 0.15906996 0.17270796 -1.3864236 1.1665406 -0.5067911 0.45412356
2.1194158 0.2100761 0.8504956 -1.2474782 -0.66735077 0.73348814 0.061859503 -3.0166352
-0.9128218 0.29925808 -0.7539106 1.3378495 0.5768804 1.2978917 -0.80200243 0.048424657
-1.0091419 0.56518596 1.1508261 1.513585 -1.847945 0.77488583 0.686149 -0.16744217
-0.1459069 -0.15970214 -0.7199206 -0.18550895 0.12307316 -0.32257834 0.325454 -0.38405386
-0.65033835 1.9718927 1.6722561 2.1390262 -0.60172355 0.11699489 0.71278477 -0.5601002
-1.7105058 0.49544162 -0.78463924 2.0106373 0.5864573 0.20990042 -0.71450615 -0.859967
1.9125975 0.6843224 -1.3319935 0.8038914 1.3291057 0.44131443 -0.0066637024 0.9604055
1.730216 0.27940723 1.777507 0.8102779 -1.6190448 1.093082 -1.0787854 0.17243154
0.610287 2.2835543 0.14185081 -0.21546862 1.2759684 0.91279054 0.38535774 0.41918027
1.698316 -0.0862323 0.875546 -0.1990196 2.63274 -0.5024082 1.447806 -1.1118839
-0.41442904 0.22011714 0.12957259 1.4492939 0.29163036 0.5375639 1.6601776 -0.5130969
-0.23873483 0.93309265 -0.8606506 -0.30652913 -1.3572856 -1.9387004 -0.30035856 1.2140256
2.0879164 -0.55719113 0.25180408 -1.0823227 -0.8545637 -2.7136433 1.0366564 -0.59512705
-0.49373093 -2.552437 0.51300216 0.5789652 -1.1342413 0.68702215 -1.0588696 -1.1758543
-0.25778484 0.5419921 -0.11291956 -0.97517914 1.7351525 0.6293256 0.015300296 0.44886452
0.6279376 0.59560615 2.3569813 1.1045291 -2.1700108 0.028424539 -1.0418129 0.44134203
-1.1772077 -1.5349195 0.1236318 1.2256328 -0.7768632 1.5318096 -0.4802402 -0.02480415
-0.07090138 -0.98437107 -0.97523504 -0.9265501 -0.40789494 1.7029085 -1.5788773 -1.7758888
00000000: 9f57 d53e bfdf b9bf 26ab 3c3f 2ac9 1dc0
00000010: ab89 593f 56ab 0440 94cb adbd 2684 913f
00000020: 8ca3 923f 06a1 e5be 9982 88bf 12e1 943f
00000030: c095 90bd eb1f 05c0 787e 3fbf ba9e ac3e
00000040: 162f 64bf f7d6 febe 13f3 cdbd ad4c de3e
00000050: a1d5 563f 54e6 13bf 240e cebf 6605 b7bf
00000060: 4a4d d8be 7be5 363f ed51 59bf a9f4 9e3f
00000070: ae6c 39bf 1dc6 803f 7798 7abf 8955 eebd
00000080: ecfa 07bf 5325 1940 09c8 963e 3828 cdbf
00000090: 9694 8cbf 5abd 8ebf 438e dcbb 3206 9dbf
000000a0: 1fdf 523f 005c 33bf 75bc b33d e2ab 19bf
000000b0: 3411 393f 9578 aabf a4d7 973e ae66 c53e
000000c0: e6ba 9f3e ca31 04bf 3572 273e 5171 d3be
000000d0: 5273 81be 012c 2c3f 97f8 02bf f182 543f
000000e0: 8930 1d3f 0584 2a3f 992f 2d3f 16ec 1ebf
000000f0: f4eb ef3f 1c05 993f aca0 1a3f 065d 893e
00000100: edee 7c3f 09d8 0640 a0ba 46bf e598 91bf
00000110: 6513 8c3f 8f29 95be 85af 613f 5621 1340
00000120: cf00 67bf 61a7 d5be 2093 6b3e 32f3 9bbf
00000130: 3fa0 ad3e 5972 60bf ee27 4c3e 1968 17bf
00000140: 7c82 64be 6549 0ebf 7cbb 52bf d2cf 6abf
00000150: 05b9 3dbf 46b6 c43e 2aec f23e cd2b 4abc
00000160: 1976 57bd 8998 61bf acdb 1d3f 04c8 b7bf
00000170: 7d9c a23c b7d6 57bf e8fb 0740 7c58 56bf
00000180: 3ce4 aa3f baa1 1cbf 6fa7 7bbf 95bb cc3f
00000190: cab2 583f f3f1 b23e 3d6e f23f d4f7 423f
000001a0: 32e6 cabf b514 2ebf 3ce3 223e 5bda 303e
000001b0: 5476 b1bf 3451 953f 10bd 01bf e282 e83e
000001c0: 82a4 0740 301e 573e 14ba 593f 5ead 9fbf
000001d0: 80d7 2abf e1c5 3b3f 6460 7d3d 8d10 41c0
000001e0: b1ae 69bf 5b38 993e 4900 41bf a73e ab3f
000001f0: 6fae 133f 5121 a63f 0850 4dbf ef58 463d
00000200: 902b 81bf 07b0 103f 454e 933f 27bd c13f
00000210: 7689 ecbf eb5e 463f 76a7 2f3f f675 2bbe
00000220: 9e68 15be f588 23be b74c 38bf 0ff6 3dbe
00000230: c80d fc3d fd28 a5be e8a1 a63e b5a2 c4be
00000240: 937c 26bf fb66 fc3f 7d0c d63f cee5 0840
00000250: 8e0a 1abf 049b ef3d 1079 363f ba62 0fbf
00000260: dbf1 dabf 86aa fd3e 1ede 48bf 48ae 0040
00000270: 1122 163f 23f0 563e e0e9 36bf cc26 5cbf
00000280: ffcf f43f c12f 2f3f c37e aabf d4cb 4d3f
00000290: 2320 aa3f f7f3 e13e 305b dabb 23dd 753f
000002a0: b877 dd3f 770e 8f3e 5985 e33f 5f6e 4f3f
000002b0: dc3c cfbf 1cea 8b3f a415 8abf e591 303e
000002c0: c53b 1c3f c125 1240 5741 113e cea3 5cbe
000002d0: ef52 a33f a4ac 693f 9c4d c53e cc9e d63e
000002e0: 6b62 d93f 8f9a b0bd c823 603f cbcb 4bbe
000002f0: d07e 2840 d39d 00bf b551 b93f 3652 8ebf
00000300: 0b30 d4be 6366 613e adae 043e 7682 b93f
00000310: 9350 953e ca9d 093f b380 d43f 525a 03bf
00000320: e776 74be 29df 6e3f 9953 5cbf 63f1 9cbe
00000330: 89bb adbf 5627 f8bf 99c8 99be 3165 9b3f
00000340: 6ca0 0540 14a4 0ebf 77ec 803e 8d89 8abf
00000350: b0c4 5abf 55ac 2dc0 28b1 843f 3f5a 18bf
00000360: 4dca fcbe 215b 23c0 1c54 033f 1037 143f
00000370: d22e 91bf afe0 2f3f 0a89 87bf 6582 96bf
00000380: 60fc 83be ffbf 0a3f 5f42 e7bd 57a5 79bf
00000390: 7a19 de3f 7c1b 213f 18ae 7a3c 92d1 e53e
000003a0: 85c0 203f a579 183f c8d8 1640 3661 8d3f
000003b0: 75e1 0ac0 94da e83c 205a 85bf 95f7 e13e
000003c0: beae 96bf 3e78 c4bf ab32 fd3d 89e1 9c3f
000003d0: 82e0 46bf 5612 c43f 0be2 f5be 1332 cbbc
000003e0: be34 91bd beff 7bbf 01a9 79bf 6332 6dbf
000003f0: 9bd7 d0be e8f8 d93f a718 cabf 5350 e3bf

gru.weight_ih_l0 f4 [384, 128]
0.17509483 0.026999047 0.116714045 0.013867882 0.06748947 0.0013412214 0.0637747 0.06474326
-0.057772953 0.032807577 -0.050659794 -0.058691338 0.006507479 0.07045786 -0.028593898 -0.118595675
0.14048536 -0.24887897 0.055951007 -0.16559856 0.18317944 0.0012876838 -0.021894619 0.027625462
0.11474576 0.07807865 -0.2541637 0.13307051 -0.007575454 -0.002281914 0.05788958 -0.13262872
-0.10067388 0.10482171 -0.014121122 0.18784554 0.091709614 -0.08648983 0.029228171 0.06213704
0.2974105 -0.080271885 -0.091760725 0.22675617 0.1417 -0.063923866 0.030932143 0.10703061
0.08533469 0.2159963 -0.0036175412 -0.004366414 0.2863267 0.23202518 0.058265045 -0.20556317
0.13557611 0.12638547 0.015385996 -0.133503 0.009975134 0.16523251 -0.005136181 -0.01630926
0.13623309 0.1910567 0.027637422 -0.013794268 0.055096716 -0.08370275 -0.035287466 -0.06553409
0.23996225 -0.056588825 0.18394294 -0.13601393 -0.06435141 -0.057653118 -0.116590165 -0.099003494
-0.0031008495 -0.1839134 0.12872821 0.13417372 -0.05442129 -0.10409203 0.06366182 -0.02109238
-0.054494996 0.061667845 0.06469076 -0.10375521 0.045948274 -0.21898004 0.12763746 -0.09652898
0.06948211 0.23220327 -0.18797614 0.05204504 -0.1489772 0.011881509 -0.03714329 0.00699965
-0.018975798 -0.18579733 -0.07794937 0.20154122 0.038174856 -0.11032461 0.039360918 -0.050810356
0.005588338 0.21590038 -0.08045234 0.104978964 0.02159249 -0.10542747 0.29775134 -0.15810885
0.063604034 0.029442532 -0.09286427 -0.04294547 -0.1538493 0.083889194 -0.067167856 0.035092935
-0.138727 0.033873335 0.10259849 0.07219915 0.23095384 -0.12224577 -0.118640624 0.15847395
0.033605725 -0.00556695 0.15454508 -0.026422901 0.031247577 0.05206672 -0.08705139 0.021974465
-0.13452326 0.027894806 0.069698095 0.1925839 0.23764068 0.049432576 -0.1872929 -0.094039194
-0.01887158 -0.008766908 0.03320911 0.112233184 -0.15615256 -0.072160654 -0.1662664 0.015826756
-0.054890502 -0.07967855 0.051815502 -0.11528619 0.07232462 0.20698193 -0.119624585 0.015259455
0.039674733 -0.12237711 0.055586796 0.1208263 -0.061954174 -0.09526224 -0.08038695 0.00566632
0.024987385 -0.16647446 -0.14756607 0.040209223 -0.19242644 -0.0763996 -0.11970178 0.18640918
0.012250258 0.032422494 -0.35040668 -0.02249689 0.074561365 0.013653947 -0.083383106 -0.06574445
-0.08890026 0.061117083 0.26670894 -0.08863428 0.13493894 0.114316456 0.03433204 -0.060785446
-0.031015307 -0.20845 -0.16261226 0.15344292 0.06531719 -0.018470066 -0.14857791 0.027056787
0.07398818 0.010247212 0.026279338 -0.12939523 -0.14145161 0.077587016 -0.060356427 -0.13024028
0.020542806 -0.01993056 -0.04241553 -0.05276768 -0.13405855 0.14141503 -0.13638495 -0.07156419
-0.18512622 -0.049606785 0.20042388 -0.084170006 -0.025052873 -0.13530718 0.1292114 -0.02353575
0.091507554 -0.0018861619 -0.038187865 0.063531436 0.12868947 0.04489351 6.660535e-05 -0.0037728234
-0.040315602 0.16425355 0.1786694 -0.098524466 0.07271263 0.15325472 -0.1640177 -0.011385417
-0.12226554 0.045452867 0.065378204 0.03858975 0.046728928 -0.050735705 -0.069766484 0.010714108
00000000: 0f4c 333e 1b2d dd3c c607 ef3d 1d36 633c
00000010: eb37 8a3d eccb af3a 4f9c 823d 1d98 843d
00000020: 55a3 6cbd 3d61 063d a580 4fbd 5466 70bd
00000030: b13c d53b 364c 903d c03d eabc 4ae2 f2bd
00000040: 65db 0f3e 21da 7ebe e22c 653d ab92 29be
00000050: 6493 3b3e 80c7 a83a 585c b3bc cb4e e23c
00000060: d3ff ea3d b3e7 9f3d bf21 82be a343 083e
00000070: 843b f8bb 2a8c 15bb a01d 6d3d d3cf 07be
00000080: 1b2e cebd c4ac d63d 475c 67bc 955a 403e
00000090: 40d2 bb3d 9421 b1bd eb6f ef3c 6983 7e3d
000000a0: 3046 983e 9665 a4bd 0ced bbbd c532 683e
000000b0: ce19 113e 84ea 82bd 6865 fd3c dd32 db3d
000000c0: f4c3 ae3d 222e 5d3e 4514 6dbb 2314 8fbb
000000d0: 6a99 923e 0298 6d3e 54a7 6e3d 277f 52be
000000e0: 77d4 0a3e 316b 013e 8b15 7c3c 03b5 08be
000000f0: bf6e 233c b632 293e 694d a8bb ff9a 85bc
00000100: b080 0b3e 5ea4 433e e067 e23c 5a01 62bc
00000110: 18ad 613d 596c abbd 9789 10bd bd36 86bd
00000120: aab8 753e afc9 67bd 8a5b 3c3e 3c47 0bbe
00000130: acca 83bd ad25 6cbd d3c6 eebd 58c2 cabd
00000140: 9f37 4bbb cb53 3cbe 54d1 033e d664 093e
00000150: dce8 5ebd 342e d5bd 2161 823d edc9 acbc
00000160: 2536 5fbd 6c97 7c3d 977c 843d 9d7d d4bd
00000170: 4234 3c3d 4e3c 60be 65b3 023e fcb0 c5bd
00000180: a34c 8e3d b2c6 6d3e d17c 40be 2e2d 553d
00000190: 7b8d 18be a9aa 423c 9023 18bd 525d e53b
000001a0: 2273 9bbc a841 3ebe eba3 9fbd d260 4e3e
000001b0: 3d5d 1c3d def1 e1bd ea38 213d 851e 50bd
000001c0: 601e b73b fd14 5d3e 32c4 a4bd 36ff d63d
000001d0: bce2 b03c 5bea d7bd dd72 983e 49e7 21be
000001e0: d542 823d 7731 f13c 9f2f bebd 97e7 2fbd
000001f0: ac8a 1dbe 19ce ab3d 4d8f 89bd 9cbd 0f3d
00000200: 730e 0ebe c4be 0a3d 281f d23d 26dd 933d
00000210: 2a7f 6c3e fe5b fabd dbf9 f2bd ff46 223e
00000220: 28a6 093d f66a b6bb 1141 1e3e d774 d8bc
00000230: ebfa ff3c ea43 553d 0048 b2bd cb03 b43c
00000240: 77c0 09be a683 e43c e0bd 8e3d b734 453e
00000250: 1458 733e d079 4a3d b6c9 3fbe 9f97 c0bd
00000260: 9298 9abc 14a3 0fbc 4706 083d 83da e53d
00000270: 75e6 1fbe f7c8 93bd bd41 2abe 1da7 813c
00000280: ddd4 60bd 822e a3bd 7e3c 543d 2a1b ecbd
00000290: ee1e 943d 12f3 533e bcfd f4bd cb02 7a3c
000002a0: f981 223d daa0 fabd fbae 633d c773 f73d
000002b0: a9c3 7dbd d918 c3bd eaa1 a4bd 8aac b93b
000002c0: 58b2 cc3c 4878 2abe 8f1b 17be 6db2 243d
000002d0: 700b 45be 6577 9cbd 3526 f5bd 0ce2 3e3e
000002e0: 4eb5 483c 73cd 043d 8168 b3be 664b b8bc
000002f0: a1b3 983d ceb4 5f3c c3c4 aabd 07a5 86bd
00000300: 5711 b6bd e855 7a3d 138e 883e e485 b5bd
00000310: 6f2d 0a3e bf1e ea3d c19f 0c3d 29fa 78bd
00000320: d013 febc eb73 55be d483 26be 2420 1d3e
00000330: 05c5 853d 894e 97bc cf24 18be 32a6 dd3c
00000340: 1d87 973d ece3 273c c447 d73c 2f80 04be
00000350: b1d8 10be f1e5 9e3d 4d38 77bd b55d 05be
00000360: 6349 a83c 6a45 a3bc e8bb 2dbd ec22 58bd
00000370: a546 09be 1acf 103e 7fa8 0bbe 3f90 92bd
00000380: ba91 3dbe 7c30 4bbd eb3b 4d3e 5361 acbd
00000390: af3b cdbc f78d 0abe fe4f 043e 0cce c0bc
000003a0: 5068 bb3d 1739 f7ba e16a 1cbd c51c 823d
000003b0: 2cc7 033e 42e2 373d 7aae 8b38 7941 77bb
000003c0: f921 25bd 1532 283e 1cf5 363e 32c7 c9bd
000003d0: 5cea 943d ceee 1c3e 42f4 27be e689 3abc
000003e0: 5b66 fabd c92c 3a3d 02e5 853d 4910 1e3d
000003f0: d566 3f3d 3ed0 4fbd bbe1 8ebd 3a8a 2f3c

gru.weight_hh_l0 f4 [384, 128]
-0.16745053 -0.21907215 -0.104304135 0.07527166 0.08221729 0.010956742 -0.017263144 0.01421034
0.002949943 -0.0637838 0.078958794 0.04135553 0.15953209 -0.050853845 -0.008414954 0.05692122
-0.07955263 -0.13857159 0.07299491 0.020706123 0.07541522 -0.022607459 -0.032425728 0.024685621
-0.13003482 0.05389656 0.015517773 0.058647886 0.04545818 -0.055535156 0.12578048 -0.08073758
-0.020777434 0.16203658 -0.12800659 -0.0027503988 0.16695511 -0.07246924 0.06419325 0.030618591
0.078228444 0.06256411 0.14153811 -0.12683712 -0.036704637 0.02044942 -0.054371994 0.028752591
0.07491216 -0.10495708 -0.016180387 0.011473821 -0.009558629 0.25664422 0.050922886 -0.1785037
-0.031292964 0.062706105 -0.08158601 0.082048684 0.04411113 -0.06571283 0.14718823 -0.16528454
-0.101110175 -0.031428073 -0.1376916 0.21961485 -0.038156595 0.178503 -0.13721965 -0.0140079195
0.014919968 -0.15500557 -0.018146902 -0.030128287 0.03625143 0.03193301 -0.052500926 -0.06812717
-0.11022905 -0.115290955 0.05420165 -0.07635532 -0.009542563 -0.13179037 0.026960257 -0.12485928
0.02849963 0.1146051 -0.109420456 -0.1294262 0.0048081945 -0.014286157 0.054377437 0.15230222
0.09022598 0.118997514 -0.15551165 -0.16504657 0.12370615 0.11901977 0.07474292 0.068790145
-0.008068761 -0.13806286 0.13151126 0.0013029913 0.13706942 0.19958085 -0.18383425 -0.14203122
0.16603583 -0.016132737 0.098990515 0.14419177 -0.051804475 -0.08707716 -0.019172247 0.16830546
0.0053581265 0.102743834 0.05393256 -0.088899314 0.026533034 -0.0008913954 -0.063233376 -0.11921521
-0.034468394 0.15049477 0.063508935 -0.04403454 0.053738445 -0.084646426 -0.15606888 -0.1504145
0.084216304 0.070466414 -0.06091202 0.01111854 -0.018838946 0.042070713 0.07395055 0.10176431
-0.03951063 -0.029769773 0.107980594 0.12962668 0.056136955 0.07829407 -0.09277764 -0.018924437
-0.0075114258 0.017448628 0.046906628 -0.09903253 0.14802098 0.09031796 -0.12833609 0.10880841
0.049872443 0.08866606 -0.045846846 -0.051445514 -0.022155486 -0.056444015 0.08463159 0.081165195
0.00750328 0.03681516 0.074874155 0.068830945 -0.061056256 0.05488837 -0.023046628 0.09412783
0.22642423 -0.05013078 -0.015876297 0.029355347 0.0878244 -0.09187903 -0.09032207 -0.0680323
-0.015115403 0.019890467 0.008247942 0.13685478 -0.15525861 -0.036308665 -0.016960418 -0.07254512
0.124267176 -0.077176034 -0.069488406 0.06553994 0.23823693 0.008334693 -0.115430534 -0.13125733
-0.043838583 0.0052740634 0.1107892 0.0016432307 -0.21536188 0.027025716 0.10587638 0.04690775
-0.0055692126 0.031096667 -0.15927078 -0.1977648 0.08186683 0.11954624 0.08575574 0.18296239
0.1122152 0.04364428 -0.05620788 -0.08215491 0.27171037 -0.08845551 0.20703232 0.100056656
0.084631056 -0.015519458 0.07710299 -0.013683448 -0.075525984 -0.07647241 0.036461584 -0.027502801
0.12630199 0.12387615 -0.049244434 0.082235135 0.15751168 0.087637395 -0.17685232 0.0074020363
0.0381073 0.015692236 -0.0959599 -0.045492575 -0.07569784 -0.13210593 -0.044027273 -0.026402414
-0.025863755 0.14521778 -0.18515919 -0.035349432 0.07337495 0.15922256 -0.12616633 0.062938854
00000000: 2778 2bbe 7354 60be 689d d5bd 0728 9a3d
00000010: 8a61 a83d e883 333c 706b 8dbc 7cd2 683c
00000020: d553 413b 15a1 82bd 26b5 a13d 6b64 293d
00000030: 615c 233e 1f4c 50bd e0de 09bc 3a26 693d
00000040: 7dec a2bd b6e5 0dbe 5b7e 953d e39f a93c
00000050: 4b73 9a3d 4733 b9bc d7d0 04bd 8039 ca3c
00000060: d927 05be a4c2 5c3d 423e 7e3c c438 703d
00000070: 5b32 3a3d d578 63bd 99cc 003e bf59 a5bd
00000080: 7035 aabc ebec 253e 2914 03be 0940 34bb
00000090: 48f6 2a3e c16a 94bd c077 833d d7d3 fa3c
000000a0: 3c36 a03d 9d21 803d 5eef 103e 97e1 01be
000000b0: 9a57 16bd 8b85 a73c 2bb5 5ebd 8e8a eb3c
000000c0: 8c6b 993d bdf3 d6bd bb8c 84bc b1fc 3b3c
000000d0: cc9b 1cbc df66 833e 8494 503d adc9 36be
000000e0: 0d2d 00bd 0f6c 803d 9116 a7bd 2409 a83d
000000f0: dfad 343d 7394 86bd 83b8 163e 5a40 29be
00000100: da12 cfbd b9ba 00bd 07ff 0cbe b7e2 603e
00000110: 174a 1cbd 7ec9 363e 4f83 0cbe 7981 65bc
00000120: e272 743c c8b9 1ebe d0a8 94bc 99cf f6bc
00000130: 617c 143d 30cc 023d 360b 57bd 4286 8bbd
00000140: c5bf e1bd aa1d ecbd 8d02 5e3d 2e60 9cbd
00000150: 6958 1cbc 0ef4 06be c2db dc3c 39b6 ffbd
00000160: 0e78 e93c 14b6 ea3d d517 e0bd 4d88 04be
00000170: 0f8e 9d3b 7c10 6abc e0ba 5e3d 1df5 1b3e
00000180: 66c8 b83d f8b4 f33d 723e 1fbe f801 29be
00000190: a659 fd3d a3c0 f33d d112 993d d9e1 8c3d
000001a0: d632 04bc 5a60 0dbe e3aa 063e 22c9 aa3a
000001b0: ed5b 0c3e ec5e 4c3e 0c3f 3cbe a270 11be
000001c0: 4c05 2a3e cd28 84bc 8abb ca3d 02a7 133e
000001d0: ee30 54bd 8355 b2bd 1e0f 9dbc 4458 2c3e
000001e0: 3993 af3b 5c6b d23d 63e8 5c3d d810 b6bd
000001f0: ce5b d93c 88ac 69ba 8080 81bd 1b27 f4bd
00000200: bb2e 0dbd 4d1b 1a3e f910 823d 905d 34bd
00000210: d81c 5c3d 1b5b adbd 85d0 1fbe 4206 1abe
00000220: 9979 ac3d b250 903d e27e 79bd 892a 363c
00000230: 2254 9abc 5752 2c3d 6373 973d ce69 d03d
00000240: e6d5 21bd bddf f3bc ee24 dd3d dbbc 043e
00000250: ddef 653d a458 a03d 3402 bebd 6c07 9bbc
00000260: 6822 f6bb 6df0 8e3c 2a21 403d 91d1 cabd
00000270: d092 173e 9ff8 b83d 896a 03be f2d6 de3d
00000280: 0c47 4c3d 8d96 b53d e7c9 3bbd 88b8 52bd
00000290: 6c7f b5bc d731 67bd 5453 ad3d f039 a63d
000002a0: 13de f53b 7ecb 163d 9f57 993d 3df7 8c3d
000002b0: 2016 7abd a1d2 603d 48cc bcbc 17c6 c03d
000002c0: c1db 673e ef55 4dbd 020f 82bc a07a f03c
000002d0: 47dd b33d 132b bcbd c7fa b8bd 8554 8bbd
000002e0: 98a6 77bc 55f1 a23c 6022 073c a923 0c3e
000002f0: 1dfc 1ebe 65b8 14bd 93f0 8abc 8992 94bd
00000300: ca7f fe3d 780e 9ebd f04f 8ebd ce39 863d
00000310: 62f4 733e 3c8e 083c d866 ecbd 5268 06be
00000320: 1690 33bd 0dd2 ac3b 73e5 e23d ac61 d73a
00000330: d387 5cbe 0965 dd3c b7d5 d83d 5722 403d
00000340: f17d b6bb 70be fe3c e117 23be db82 4abe
00000350: cca9 a73d a9d4 f43d b5a0 af3d 7e5a 3b3e
00000360: 15d1 e53d 58c4 323d 3c3a 66bd d540 a8bd
00000370: 9f1d 8b3e 2a28 b5bd 4800 543e 81ea cc3d
00000380: 0c53 ad3d 5345 7ebc 2ce8 9d3d 8a30 60bc
00000390: 5ead 9abd 919d 9cbd be58 153d 8e4d e1bc
000003a0: 4f55 013e c7b2 fd3d 88b4 49bd e56a a83d
000003b0: be4a 213e 3c7b b33d c618 35be c88c f23b
000003c0: 6616 1c3d 018d 803c a086 c4bd 6c56 3abd
000003d0: 7807 9bbd c746 07be f155 34bd e049 d8bc
000003e0: 3ae0 d3bc f8b3 143e 5f9a 3dbe 91ca 10bd
000003f0: 9b45 963d 3d0b 233e bf31 01be 16e6 803d

gru.bias_ih_l0 f4 [384]
0.13284677 0.1571912 0.15882674 -0.022575675 0.0218821 0.13807616 0.06491211 0.027750833
0.1365669 0.0700658 0.08726799 -0.05307145 0.013583496 -0.023307014 0.024676975 -0.04945171
0.110489115 -0.028719308 -0.015432188 0.01329546 0.047473658 0.028585803 0.07889849 0.11574017
0.10156213 0.084049605 0.011904231 0.052122477 -0.0007520064 0.03524426 -0.054361038 0.13092382
0.011695099 -0.021513097 0.042060588 0.04442759 -0.061077803 0.062007427 -0.04726224 0.09659206
-0.00025319672 0.020147705 0.037598453 -0.06874429 -0.009600376 0.0666084 0.051604528 0.14050008
0.06507839 0.012753278 0.09959907 -0.025465408 -0.008113139 0.011383971 -0.06899752 0.102913335
0.02419396 -0.002013894 0.1995017 -0.011068448 0.10246377 0.024955109 0.06513429 -0.0073733297
0.027126046 0.08759693 -0.020795105 -0.09988583 -0.05364628 0.1498884 0.03673603 0.066254005
0.020061009 0.021573655 -0.039600834 0.12709276 0.09809586 0.10126124 -0.054897588 0.073507994
-0.10238427 0.16658054 0.018457998 -0.042051237 0.009119629 0.33249432 -0.12814802 -0.05080146
-0.03205446 -0.06874114 0.17399895 -0.002563496 0.017148651 0.12598927 0.090519175 -0.017517349
0.08481753 0.0013320224 0.18862444 0.04649558 0.018639848 -0.010434818 0.029475782 -0.016520673
0.014098386 -0.010902093 0.053795338 0.006874784 -0.08497721 -0.020571383 0.048759744 0.02980265
0.043473803 0.021685494 0.106088586 -0.032492146 0.2187926 -0.049924754 -0.036633182 0.14905854
0.090512775 0.04348104 0.09422307 -0.059645783 0.07030475 0.11529676 0.15398547 0.010364384
-0.13761665 -0.112050496 -0.20557463 -0.033310805 -0.13925293 -0.27512163 -0.06345075 0.069490656
-0.15551454 -0.059308287 -0.02740462 -0.255095 -0.119869865 -0.07146095 -0.08786327 -0.059829313
-0.17566174 -0.056138687 -0.10730409 -0.13505207 -0.072377235 0.051981267 -0.061492953 -0.18844362
-0.15145244 -0.07302997 -0.086034425 -0.10776698 -0.090543516 -0.09129214 -0.08089175 -0.07874131
-0.17335173 0.09409523 -0.19335307 -0.10665606 -0.033724207 -0.12947218 -0.118818276 -0.017743606
-0.13111264 -0.13355516 -0.100211196 0.042760365 -0.14318159 -0.043640453 -0.16624978 0.056376792
0.012732359 0.020008724 -0.20980805 -0.1507769 -0.21009678 -0.13035557 -0.04841926 0.061204117
-0.12356537 0.040951893 -0.04953867 -0.2812648 -0.04774422 -0.03257118 -0.125877 -0.042682804
-0.1362461 -0.06965307 -0.17207016 -0.15848874 -0.037611693 -0.025384607 -0.018782659 -0.08205493
-0.042457737 -0.089427896 -0.027998786 -0.16029629 0.20194879 -0.08799983 -0.15568744 -0.012292114
-0.26620612 -0.27838156 -0.07406496 -0.16965078 -0.105038464 -0.082993485 -0.06478765 -0.27253455
-0.16914982 -0.15484342 -0.13771483 -0.07533469 -0.044390164 -0.07449573 -0.16553746 -0.17155212
-0.30241388 -0.17731903 -0.08886301 -0.07793983 -0.11148364 -0.13389915 -0.18707053 -0.23494764
-0.1432535 0.015287828 -0.11484011 -0.08810907 -0.18155693 -0.09284154 -0.14072233 -0.19674094
-0.10561419 -0.05202816 -0.03913431 -0.047044415 -0.18324338 -0.038656943 -0.039250027 -0.02269089
-0.15525751 -0.23642348 -0.1544962 -0.009145787 -0.17647837 -0.12810846 -0.122879475 -0.19715512
00000000: fc08 083e bbf6 203e 7aa3 223e 9ff0 b8bc
00000010: 1742 b33c d663 0d3e a4f0 843d b755 e33c
00000020: 32d8 0b3e a87e 8f3d 8fb9 b23d 7361 59bd
00000030: 508d 5e3c 5aee bebc 5e27 ca3c e08d 4abd
00000040: 1e48 e23d c144 ebbc 4ad7 7cbc 33d5 593c
00000050: bd73 423d c62c ea3c 8895 a13d 2f09 ed3d
00000060: ceff cf3d 3322 ac3d f709 433c 617e 553d
00000070: 4c22 45ba 495c 103d aea9 5ebd e510 063e
00000080: cd9c 3f3c 3c3c b0bc b947 2c3d b4f9 353d
00000090: b82c 7abd 80fb 7d3d 0d96 41bd 0fd2 c53d
000000a0: 7dbf 84b9 cd0c a53c d600 1a3d cec9 8cbd
000000b0: e54a 1dbc fc69 883d 455f 533d 41df 0f3e
000000c0: d247 853d 20f3 503c 99fa cb3d d59c d0bc
000000d0: f9ec 04bc d683 3a3c 924e 8dbd 3ac4 d23d
000000e0: 6932 c63c 89fb 03bb 2c4a 4c3e 7058 35bc
000000f0: 86d8 d13d a86e cc3c 2065 853d f99b f1bb
00000100: 7137 de3c 0566 b33d 7f5a aabc f190 ccbd
00000110: 34bc 5bbd 587c 193e 8578 163d 2eb0 873d
00000120: fc56 a43c 3cbb b03c 7c34 22bd 9b24 023e
00000130: 7be6 c83d 0e62 cf3d 4bdc 60bd 5c8b 963d
00000140: d8ae d1bd 1794 2a3e 3a35 973c eb3d 2cbd
00000150: 7f6a 153c b23c aa3e 3c39 03be 3115 50bd
00000160: 8a4b 03bd 28c8 8cbd c82c 323e 5300 28bb
00000170: 547b 8c3c 5503 013e 1e62 b93d 8b80 8fbc
00000180: d0b4 ad3d 4197 ae3a c426 413e 2672 3e3d
00000190: 98b2 983c cdf6 2abc 3277 f13c 5d56 87bc
000001a0: ebfc 663c b19e 32bc 8058 5c3d de45 e13b
000001b0: 8808 aebd 5185 a8bc 4cb8 473d b024 f43c
000001c0: 9611 323d c7a5 b13c f944 d93d 7c16 05bd
000001d0: 2b0b 603e e67d 4cbd ad0c 16bd cda2 183e
000001e0: c35e b93d 2d19 323d 06f8 c03d 234f 74bd
000001f0: f0fb 8f3d b520 ec3d 5eae 1d3e 61cf 293c
00000200: 61eb 0cbe bb7a e5bd 2882 52be e970 08bd
00000210: 5298 0ebe bedc 8cbe 78f2 81bd 1e51 8e3d
00000220: 343f 1fbe 3fed 72bd a77f e0bc d09b 82be
00000230: 557e f5bd 1e5a 92bd a8f1 b3bd 950f 75bd
00000240: ace0 33be aef1 65bd 3fc2 dbbd 174b 0abe
00000250: 843a 94bd 4fea 543d 09e0 7bbd 5df7 40be
00000260: 5916 1bbe bd90 95bd d132 b0bd efb4 dcbd
00000270: e16e b9bd 60f7 babd 93aa a5bd 2043 a1bd
00000280: 1e83 31be 00b5 c03d 59fe 45be 7e6e dabd
00000290: 6522 0abd 5b94 04be ff56 f3bd 0a5b 91bc
000002a0: 6442 06be afc2 08be 873b cdbd 7e25 2f3d
000002b0: 329e 12be 55c0 32bd 623d 2abe 5aeb 663d
000002c0: 629b 503c 56e9 a33c ecd7 56be 4265 1abe
000002d0: 9c23 57be ee7b 05be 4653 46bd 2bb1 7a3d
000002e0: d70f fdbd 2cbd 273d 0fe9 4abd f101 90be
000002f0: 718f 43bd 5c69 05bd e6e5 00be 2ad4 2ebd
00000300: 1984 0bbe 45a6 8ebd 2933 30be df4a 22be
00000310: b80e 1abd 61f3 cfbc 17de 99bc 6a0c a8bd
00000320: 2ae8 2dbd f925 b7bd b65d e5bc b624 24be
00000330: aacb 4e3e 4139 b4bd 876c 1fbe dd64 49bc
00000340: 2b4c 88be 0788 8ebe 5faf 97bd efb8 2dbe
00000350: 681e d7bd 7df8 a9bd 63af 84bd a689 8bbe
00000360: 9c35 2dbe 468f 1ebe 1e05 0dbe 1349 9abd
00000370: 76d2 35bd 3891 98bd a782 29be 5cab 2fbe
00000380: fed5 9abe 1f93 35be cffd b5bd eb9e 9fbd
00000390: 8951 e4bd dc1c 09be 6b8f 3fbe 1d96 70be
000003a0: 0cb1 12be cc79 7a3c 4b31 ebbd 8772 b4bd
000003b0: 0fea 39be b523 bebd 8419 10be 7576 49be
000003c0: 414c d8bd 7b1b 55bd 4c4b 20bd a5b1 40bd
000003d0: 27a4 3bbe be56 1ebd a3c4 20bd 3fe2 b9bc
000003e0: d3fb 1ebe ff18 72be 4034 1ebe 36d8 15bc
000003f0: bfb6 34be dd2e 03be 3ca8 fbbd 08e3 49be

gru.bias_hh_l0 f4 [384]
0.1516658 0.16455023 0.12930731 0.06851083 0.076030105 0.007923502 0.113705516 0.06709558
0.17057562 0.154586 0.11600938 0.062542915 0.10833983 0.041738946 0.004995451 -0.03087173
0.075477555 -0.030179638 0.011585295 0.088270254 0.016939895 0.0045659053 0.08816604 -0.032639235
0.15746509 0.019055022 0.044273492 -0.023274751 -0.0029801328 -0.035504747 0.062326312 0.058750518
0.071043395 0.06483256 -0.03577303 -0.02817442 0.03116445 0.0077801254 0.020730257 0.19785486
0.15768456 0.10023204 0.0056061717 0.012767018 0.06484707 0.03203954 0.10833329 0.07958397
0.12464639 0.08945494 0.015499666 -0.009449358 -0.03228138 0.09399726 0.07641513 0.060459573
0.01336164 -0.0494058 0.2085641 -0.0073242676 0.02099597 0.032537088 0.066476025 0.06924584
0.0699643 0.099007346 0.086044 -0.095672034 -0.03296358 0.1313129 0.036710065 -0.019656118
0.029889127 0.011325859 -0.036139686 0.14251572 0.14601056 0.16805014 0.04808434 -0.034408033
0.024498392 0.12212104 0.10153184 0.04349082 0.024603609 0.35190812 0.022974364 -0.0520864
0.07088748 0.06495766 0.10350102 0.052006338 0.049505305 0.11815928 0.12911226 -0.056305137
0.073606834 0.09555007 0.14066301 0.1090805 0.011456511 0.061869197 0.15787926 -0.097920015
-0.010016324 0.06438573 0.03716046 -0.046033062 -0.00069315167 -0.072414756 0.051962435 0.13623819
0.053300645 -0.0057729664 0.17506099 -0.03226655 0.14544877 0.011429209 0.06589741 0.023402644
0.14030343 0.108967416 0.011095902 -0.06622 -0.0072034127 0.09867793 0.16382949 -0.025817227
-0.10642311 -0.02035217 -0.12690781 0.007999568 -0.18638793 -0.12071964 -0.16448684 0.06370097
-0.074072376 -0.12260419 -0.11298432 -0.26304838 -0.07702714 -0.093669765 -0.21467662 -0.10406201
-0.059645116 -0.06994382 -0.11841266 -0.19802715 -0.14423235 0.016619401 -0.1000915 -0.1424353
-0.14342727 -0.18167944 -0.12165992 -0.15379906 -0.12642802 -0.08944989 -0.04224071 -0.07986046
-0.15801047 0.06634585 -0.16986273 -0.07460604 -0.11540315 -0.052647136 -0.10733454 0.028862108
-0.036365 -0.04040938 -0.15963733 -0.06665069 -0.17769533 -0.006978142 -0.089306004 0.013466458
-0.08103862 -0.02964297 -0.18575144 -0.08284144 -0.19928087 -0.110771604 -0.093760036 0.13448276
-0.028808272 -0.064538635 0.06694586 -0.21189788 -0.04156493 -0.041654028 -0.1176953 -0.049935818
-0.07623405 0.042857233 -0.31341377 -0.1095571 -0.033775628 -0.034631908 0.027707655 -0.14408377
-0.14656644 0.02433705 -0.041938923 -0.15293959 0.15402128 -0.057756048 -0.09359931 -0.0012296999
-0.2518185 -0.11559974 -0.09453722 -0.15579696 -0.02714855 -0.16136762 -0.058190554 -0.22144608
-0.25378662 -0.047143552 -0.054768804 -0.05194915 0.07417366 -0.0754635 -0.14608873 -0.16708319
-0.18837547 -0.23778585 0.012978943 -0.15013915 -0.09955732 -0.022113793 -0.05954631 -0.20101324
-0.11091774 -0.022932503 -0.09912092 -0.104285724 -0.20674415 -0.082451984 -0.15046728 -0.06184202
-0.14558202 -0.16122805 -0.071209855 -0.08885074 -0.037916873 -0.050237115 -0.062267255 0.008903315
-0.15025082 -0.2119395 -0.16551985 -0.020694885 -0.1908161 -0.10744525 -0.050302807 -0.033005297
00000000: 484e 1b3e db7f 283e 2369 043e 684f 8c3d
00000010: acb5 9b3d 93d1 013c 70de e83d 6869 893d
00000020: 60ab 2e3e cb4b 1e3e 5396 ed3d 8016 803d
00000030: 46e1 dd3d 75f6 2a3d e1b0 a33b b6e6 fcbc
00000040: fa93 9a3d 4a3b f7bc 40d0 3d3c 09c7 b43d
00000050: 89c5 8a3c 979d 953b 6690 b43d b8b0 05bd
00000060: 873e 213e 4719 9c3c 1f58 353d b1aa bebc
00000070: 554e 43bb 6d6d 11bd e049 7f3d 62a4 703d
00000080: 337f 913d efc6 843d be86 12bd 0bce e6bc
00000090: 974c ff3c 6cf0 fe3b 80d2 a93c 779a 4a3e
000000a0: 1078 213e 7546 cd3d fab3 b73b c12c 513c
000000b0: 8ace 843d e53b 033d d8dd dd3d ecfc a23d
000000c0: 9b46 ff3d 2734 b73d 50f2 7d3c 7bd1 1abc
000000d0: 7b39 04bd a381 c03d 897f 9c3d 75a4 773d
000000e0: c8ea 5a3c bc5d 4abd d491 553e 6900 f0bb
000000f0: beff ab3c 9c45 053d 9524 883d c3d0 8d3d
00000100: 7149 8f3d 5dc4 ca3d d637 b03d b3ef c3bd
00000110: d204 07bd e476 063e 4b5d 163d de05 a1bc
00000120: 0bda f43c 1990 393c 3507 14bd a4ef 113e
00000130: cb83 153e 5615 2c3e 16f4 443d 70ef 0cbd
00000140: dab0 c83c 991a fa3d edef cf3d 6e23 323d
00000150: 828d c93c 4d2d b43e bc34 bc3c 8d58 55bd
00000160: 752d 913d 8608 853d 58f8 d33d 9904 553d
00000170: 13c6 4a3d 7efd f13d 0136 043e 37a0 66bd
00000180: 2ebf 963d c1af c33d f709 103e 9965 df3d
00000190: 17b4 3b3c 8e6a 7d3d 1aab 213e 4a8a c8bd
000001a0: 821b 24bc aadc 833d 9135 183d 2a8d 3cbd
000001b0: 9fb4 35ba 304e 94bd 90d6 543d 0682 0b3e
000001c0: c751 5a3d 272b bdbb 3043 333e ee29 04bd
000001d0: 86f0 143e 9441 3b3c 39f5 863d e7b6 bf3c
000001e0: b4ab 0f3e 4f2a df3d 96cb 353c 5a9e 87bd
000001f0: 9b0a ecbb a817 ca3d ebc2 273e a67e d3bc
00000200: 5cf4 d9bd 98b9 a6bc 1ff4 01be 9f10 033c
00000210: 7adc 3ebe dc3b f7bd 3d6f 28be a775 823d
00000220: 42b3 97bd e817 fbbd 5364 e7bd 47ae 86be
00000230: 68c0 9dbd efd5 bfbd 30d4 5bbe 771e d5bd
00000240: 704e 74bd b53e 8fbd 5682 f2bd a1c7 4abe
00000250: a5b1 13be 6925 883c c6fc ccbd 8fda 11be
00000260: 99de 12be 2d0a 3abe d628 f9bd 807d 1dbe
00000270: 5976 01be 8131 b7bd 9804 2dbd e18d a3bd
00000280: 7fcd 21be 55e0 873d 7ff0 2dbe 0dcb 98bd
00000290: 7d58 ecbd 86a4 57bd 36d2 dbbd 3a70 ec3c
000002a0: 77f3 14bd 4e84 25bd f877 23be 2880 88bd
000002b0: c4f5 35be e6a8 e4bb 11e6 b6bd 6ba2 5c3c
000002c0: 93f7 a5bd d0d5 f2bc a035 3ebe c6a8 a9bd
000002d0: 4910 4cbe 39dc e2bd 4305 c0bd d9b5 093e
000002e0: 53ff ebbc d52c 84bd e91a 893d c2fb 58be
000002f0: fd3f 2abd 6a9d 2abd 3c0a f1bd 8089 4cbd
00000300: 9920 9cbd 118b 2f3d c577 a0be 795f e0bd
00000310: 5058 0abd 30da 0dbd 2afb e23c b28a 13be
00000320: 8315 16be 7e5e c73c 26c8 2bbd 329c 1cbe
00000330: c1b7 1d3e 9b91 6cbd ffb0 bfbd e22d a1ba
00000340: 5bee 80be 8ebf ecbd bb9c c1bd 3d89 1fbe
00000350: a366 debc 8e3d 25be 3859 6ebd c3c2 62be
00000360: 52f0 81be 9919 41bd 4155 60bd a2c8 54bd
00000370: 5ce8 973d 9c8c 9abd 4998 15be db17 2bbe
00000380: 80e5 40be 227e 73be a2a5 543c 14be 19be
00000390: b5e4 cbbd fc27 b5bc d5e6 73bd 6ad6 4dbe
000003a0: d728 e3bd f2dc bbbc e9ff cabd c193 d5bd
000003b0: bdb4 53be 96dc a8bd 1814 1abe 0f4e 7dbd
000003c0: 7413 15be f718 25be 79d6 91bd 60f7 b5bd
000003d0: b94e 1bbd 6fc5 4dbd f30b 7fbd 36df 113c
000003e0: 5adb 19be ab06 59be 097e 29be 5288 a9bc
000003f0: 4c65 43be 410c dcbd 510a 4ebd 9030 07bd
